Found 28821 images belonging to 7 classes.
Found 7066 images belonging to 7 classes.

Model: "sequential"
_________________________________________________________________
 Layer (type)                Output Shape              Param #   
=================================================================
 conv2d (Conv2D)             (None, 56, 56, 64)        640       
                                                                 
 batch_normalization (BatchN  (None, 56, 56, 64)       256       
 ormalization)                                                   
                                                                 
 activation (Activation)     (None, 56, 56, 64)        0         
                                                                 
 max_pooling2d (MaxPooling2D  (None, 28, 28, 64)       0         
 )                                                               
                                                                 
 dropout (Dropout)           (None, 28, 28, 64)        0         
                                                                 
 conv2d_1 (Conv2D)           (None, 28, 28, 128)       204928    
                                                                 
 batch_normalization_1 (Batc  (None, 28, 28, 128)      512       
 hNormalization)                                                 
                                                                 
 activation_1 (Activation)   (None, 28, 28, 128)       0         
                                                                 
 max_pooling2d_1 (MaxPooling  (None, 14, 14, 128)      0         
 2D)                                                             
                                                                 
 dropout_1 (Dropout)         (None, 14, 14, 128)       0         
                                                                 
 conv2d_2 (Conv2D)           (None, 14, 14, 512)       590336    
                                                                 
 batch_normalization_2 (Batc  (None, 14, 14, 512)      2048      
 hNormalization)                                                 
                                                                 
 activation_2 (Activation)   (None, 14, 14, 512)       0         
                                                                 
 max_pooling2d_2 (MaxPooling  (None, 7, 7, 512)        0         
 2D)                                                             
                                                                 
 dropout_2 (Dropout)         (None, 7, 7, 512)         0         
                                                                 
 conv2d_3 (Conv2D)           (None, 7, 7, 512)         2359808   
                                                                 
 batch_normalization_3 (Batc  (None, 7, 7, 512)        2048      
 hNormalization)                                                 
                                                                 
 activation_3 (Activation)   (None, 7, 7, 512)         0         
                                                                 
 max_pooling2d_3 (MaxPooling  (None, 3, 3, 512)        0         
 2D)                                                             
                                                                 
 dropout_3 (Dropout)         (None, 3, 3, 512)         0         
                                                                 
 flatten (Flatten)           (None, 4608)              0         
                                                                 
 dense (Dense)               (None, 256)               1179904   
                                                                 
 batch_normalization_4 (Batc  (None, 256)              1024      
 hNormalization)                                                 
                                                                 
 activation_4 (Activation)   (None, 256)               0         
                                                                 
 dropout_4 (Dropout)         (None, 256)               0         
                                                                 
 dense_1 (Dense)             (None, 512)               131584    
                                                                 
 batch_normalization_5 (Batc  (None, 512)              2048      
 hNormalization)                                                 
                                                                 
 activation_5 (Activation)   (None, 512)               0         
                                                                 
 dropout_5 (Dropout)         (None, 512)               0         
                                                                 
 dense_2 (Dense)             (None, 7)                 3591      
                                                                 
=================================================================
Total params: 4,478,727
Trainable params: 4,474,759
Non-trainable params: 3,968
_________________________________________________________________
None


225/225 [==============================] - ETA: 0s - loss: 2.0833 - accuracy: 0.2092
Epoch 1: val_accuracy improved from -inf to 0.25923, saving model to model_weights.h5
…
